…
6179/6179 [==============================] - 1s 182us/sample - loss: 0.1376 - acc: 0.9468 - val_loss: 0.1627 - val_acc: 0.9400
Epoch 49/50
6179/6179 [==============================] - 1s 198us/sample - loss: 0.1353 - acc: 0.9453 - val_loss: 0.1698 - val_acc: 0.9405
Epoch 50/50
6179/6179 [==============================] - 1s 192us/sample - loss: 0.1480 - acc: 0.9459 - val_loss: 0.1671 - val_acc: 0.9388
_________________________________________________________________
Layer (type)                 Output Shape              Param #   
=================================================================
input_8 (InputLayer)         (None, 128, 9)            0         
_________________________________________________________________
flatten_5 (Flatten)          (None, 1152)              0         
_________________________________________________________________
dense_18 (Dense)             (None, 64)                73792     
_________________________________________________________________
dropout_4 (Dropout)          (None, 64)                0         
_________________________________________________________________
dense_19 (Dense)             (None, 128)               8320      
_________________________________________________________________
dropout_5 (Dropout)          (None, 128)               0         
_________________________________________________________________
dense_20 (Dense)             (None, 64)                8256      
_________________________________________________________________
dropout_6 (Dropout)          (None, 64)                0         
_________________________________________________________________
dense_21 (Dense)             (None, 6)                 390       
=================================================================
Total params: 90,758
Trainable params: 90,758
Non-trainable params: 0
_________________________________________________________________
None
Confusion matrix, without normalization
[[767   0   0   0   0   0]
 [  0 661   8  12   1   2]
 [  0   8 584   9   0   1]
 [  0   3  12 554   0   0]
 [  0   0   0   0 626  99]
 [  0   0 
…
