…
6179/6179 [==============================] - 17s 3ms/sample - loss: 0.1293 - acc: 0.9749 - val_loss: 0.1451 - val_acc: 0.9733
Epoch 49/50
6179/6179 [==============================] - 17s 3ms/sample - loss: 0.1312 - acc: 0.9733 - val_loss: 0.1605 - val_acc: 0.9672
Epoch 50/50
6179/6179 [==============================] - 19s 3ms/sample - loss: 0.1328 - acc: 0.9749 - val_loss: 0.1423 - val_acc: 0.9699
_________________________________________________________________
Layer (type)                 Output Shape              Param #   
=================================================================
input_14 (InputLayer)        (None, 128, 9, 1)         0         
_________________________________________________________________
conv2d_11 (Conv2D)           (None, 64, 5, 32)         320       
_________________________________________________________________
batch_normalization_v1_11 (B (None, 64, 5, 32)         128       
_________________________________________________________________
dropout_15 (Dropout)         (None, 64, 5, 32)         0         
_________________________________________________________________
conv2d_12 (Conv2D)           (None, 32, 3, 64)         18496     
_________________________________________________________________
batch_normalization_v1_12 (B (None, 32, 3, 64)         256       
_________________________________________________________________
dropout_16 (Dropout)         (None, 32, 3, 64)         0         
_________________________________________________________________
conv2d_13 (Conv2D)           (None, 16, 2, 64)         36928     
_________________________________________________________________
batch_normalization_v1_13 (B (None, 16, 2, 64)         256       
_________________________________________________________________
dropout_17 (Dropout)         (None, 16, 2, 64)         0         
_________________________________________________________________
flatten_9 (Flatten)          (None, 2048)              0         
_________________________________________________________________
dropout_18 (Dropout)         (None, 2048)              0         
_________________________________________________________________
dense_32 (Dense)             (None, 512)               1049088   
_________________________________________________________________
dropout_19 (Dropout)         (None, 512)               0         
_________________________________________________________________
dense_33 (Dense)             (None, 6)                 3078      
=================================================================
Total params: 1,108,550
Trainable params: 1,108,230
Non-trainable params: 320
_________________________________________________________________
None
Confusion matrix, without normalization
[[767   0   0   0   0   0]
 [  0 680   1   3   0   0]
 [  0   0 601   0   0   1]
 [  0   0   1 568   0   0]
 [  0   0   0   0 662  63]
 [ 
…
